…
/6 = 1/2$事件 $A \\cap B$ (偶數且大於 3)： $\\{4, 6\\}$，$P(A \\cap B) = 2/6 = 1/3$條件機率 $P(A|B)$：$\\frac{P(A \\cap B)}{P(B)} = \\frac{1/3}{1/2} = \\frac{2}{3}$選項 D 的計算邏輯與條件機率的定義完全一致。"
    },
    {
      "id": "42",
      "content": "## VGG16 是由牛津大學 Visual Geometry Group(VGG)在 2014 年提出的經典卷積神經網路（Convolutional Neural Network, CNN）架構。該模型以簡潔且規則的層堆疊設計聞名，廣泛應用於影像分類、特徵提取及遷移學習等任務。附圖程式碼載入了預訓練的 VGG16 模型，並輸出其完整層級結構及參數統計摘要（如附表）。請根據此資訊回答 42~45 題。@@---------------------------------------------------------------- Layer (type) Output Shape Param #================================================================ Conv2d-1 [-1, 64, 150, 150] 1,792 ReLU-2 [-1, 64, 150, 150] 0 Conv2d-3 [-1, 64, 150, 150] 36,928 ReLU-4 [-1, 64, 150, 150] 0\r\n MaxPool2d-5 [-1, 64, 75, 75] 0\r\n Conv2d-6 [-1, 128, 75, 75] 73,856\r\n ReLU-7 [-1, 128, 75, 75] 0\r\n Conv2d-8 [-1, 128, 75, 75] 147,584\r\n ReLU-9 [-1, 128, 75, 75] 0\r\n MaxPool2d-10 [-1, 128, 37, 37] 0\r\n Conv2d-11 [-1, 256, 37, 37] 295,168\r\n ReLU-12 [-1, 256, 37, 37] 0\r\n Conv2d-13 [-1, 256, 37, 37] 590,080\r\n ReLU-14 [-1, 256, 37, 37] 0\r\n Conv2d-15 [-1, 256, 37, 37] 590,080\r\n ReLU-16 [-1, 256, 37, 37] 0\r\n MaxPool2d-17 [-1, 256, 18, 18] 0\r\n Conv2d-18 [-1, 512, 18, 18] 1,180,160\r\n ReLU-19 [-1, 512, 18, 18] 0\r\n Conv2d-20 [-1, 512, 18, 18] 2,359,808\r\n ReLU-21 [-1, 512, 18, 18] 0\r\n Conv2d-22 [-1, 512, 18, 18] 2,359,808\r\n ReLU-23 [-1, 512, 18, 18] 0\r\n MaxPool2d-24 [-1, 512, 9, 9] 0\r\n Conv2d-25 [-1, 512, 9, 9] 2,359,808\r\n ReLU-26 [-1, 512, 9, 9] 0\r\n Conv2d-27 [-1, 512, 9, 9] 2,359,808\r\n ReLU-28 [-1, 512, 9, 9] 0\r\n Conv2d-29 [-1, 512, 9, 9] 2,359,808\r\n ReLU-30 [-1, 512, 9, 9] 0\r\n MaxPool2d-31 [-1, 512, 4, 4] 0\r\nAdaptiveAvgPool2d-32 [-1, 512, 7, 7] 0\r\n Linear-33 [-1, 4096] 102,764,544\r\n ReLU-34 [-1, 4096] 0\r\n Dropout-35 [-1, 4096] 0\r\n Linear-36 [-1, 4096] 16,781,312\r\n ReLU-37 [-1, 4096] 0\r\n Dropout-38 [-1, 4096] 0\r\n Linear-39 [-1, 1000] 4,097,000\r\n================================================================\r\nTotal params: 138,357,544\r\nTrainable params: 138,357,544\r\nNon-trainable params: 0\r\n----------------------------------------------------------------\r\nInput size (MB): 0.26\r\nForward/backward pass size (MB): 96.93\r\nParams size (MB): 527.79\r\nEstimated Total Size (MB): 624.98\r\n---------------------------------------------------------------- ##42. 在深度神經網路中，不同層的參數量（parameter count）差異極大。有些層雖然數量少但計算量大，有些則相反。了解參數分佈情形，有助於模型壓縮與遷移學習設計。請問在 VGG16 中，下列何者的參數量最多？",
…
